…
2020-01-21 06:28:57.545464: I tensorflow/stream_executor/cuda/cudart_stub.cc:29] Ignore above cudart dlerror if you do not have a GPU set up on your machine.
Using plaidml.keras.backend backend.
Scaling input data...
Max value: 255.0
Number of classes in this dataset: 10
One hot encoding targets...
Original input shape: (32, 32, 3)
INFO:plaidml:Opening device "opencl_amd_ellesmere.0"
_________________________________________________________________
Layer (type)                 Output Shape              Param #
=================================================================
conv2d_1 (Conv2D)            (None, 32, 32, 48)        1344
_________________________________________________________________
activation_1 (Activation)    (None, 32, 32, 48)        0
_________________________________________________________________
batch_normalization_1 (Batch (None, 32, 32, 48)        192
_________________________________________________________________
conv2d_2 (Conv2D)            (None, 30, 30, 48)        20784
_________________________________________________________________
activation_2 (Activation)    (None, 30, 30, 48)        0
_________________________________________________________________
batch_normalization_2 (Batch (None, 30, 30, 48)        192
_________________________________________________________________
max_pooling2d_1 (MaxPooling2 (None, 15, 15, 48)        0
_________________________________________________________________
dropout_1 (Dropout)          (None, 15, 15, 48)        0
_________________________________________________________________
conv2d_3 (Conv2D)            (None, 15, 15, 96)        41568
_________________________________________________________________
activation_3 (Activation)    (None, 15, 15, 96)        0
_________________________________________________________________
batch_normalization_3 (Batch (None, 15, 15, 96)        384
_________________________________________________________________
conv2d_4 (Conv2D)            (None, 13, 13, 96)        83040
_________________________________________________________________
activation_4 (Activation)    (None, 13, 13, 96)        0
_________________________________________________________________
batch_normalization_4 (Batch (None, 13, 13, 96)        384
_________________________________________________________________
max_pooling2d_2 (MaxPooling2 (None, 6, 6, 96)          0
_________________________________________________________________
dropout_2 (Dropout)          (None, 6, 6, 96)          0
_________________________________________________________________
conv2d_5 (Conv2D)            (None, 6, 6, 192)         166080
_________________________________________________________________
activation_5 (Activation)    (None, 6, 6, 192)         0
_________________________________________________________________
batch_normalization_5 (Batch (None, 6, 6, 192)         768
_________________________________________________________________
conv2d_6 (Conv2D)            (None, 4, 4, 192)         331968
_________________________________________________________________
activation_6 (Activation)    (None, 4, 4, 192)         0
_________________________________________________________________
batch_normalization_6 (Batch (None, 4, 4, 192)         768
_________________________________________________________________
max_pooling2d_3 (MaxPooling2 (None, 2, 2, 192)         0
_________________________________________________________________
dropout_3 (Dropout)          (None, 2, 2, 192)         0
_________________________________________________________________
flatten_1 (Flatten)          (None, 768)               0
_________________________________________________________________
dense_1 (Dense)              (None, 256)               196864
_________________________________________________________________
activation_7 (Activation)    (None, 256)               0
_________________________________________________________________
batch_normalization_7 (Batch (None, 256)               1024
_________________________________________________________________
dropout_4 (Dropout)          (None, 256)               0
_________________________________________________________________
dense_2 (Dense)              (None, 10)                2570
_________________________________________________________________
activation_8 (Activation)    (None, 10)                0
=================================================================
Total params: 847,930
Trainable params: 846,074
Non-trainable params: 1,856
_________________________________________________________________
Epoch 1/256
 - 211s - loss: 1.4574 - acc: 0.4999 - val_loss: 1.0777 - val_acc: 0.6212
Epoch 2/256
 - 163s - loss: 0.8343 - acc: 0.7082 - val_loss: 0.6568 - val_acc: 0.7768
Epoch 3/256
…
