…
2020-01-23 06:43:50.247382: I tensorflow/stream_executor/cuda/cudart_stub.cc:29] Ignore above cudart dlerror if you do not have a GPU set up on your machine.
Using plaidml.keras.backend backend.
Scaling input data...
Max value: 255.0
Number of classes in this dataset: 10
One hot encoding targets...
Original input shape: (32, 32, 3)
INFO:plaidml:Opening device "opencl_amd_ellesmere.0"
_________________________________________________________________
Layer (type)                 Output Shape              Param #
=================================================================
conv2d_1 (Conv2D)            (None, 32, 32, 48)        1344
_________________________________________________________________
activation_1 (Activation)    (None, 32, 32, 48)        0
_________________________________________________________________
batch_normalization_1 (Batch (None, 32, 32, 48)        192
_________________________________________________________________
conv2d_2 (Conv2D)            (None, 30, 30, 48)        20784
_________________________________________________________________
activation_2 (Activation)    (None, 30, 30, 48)        0
_________________________________________________________________
batch_normalization_2 (Batch (None, 30, 30, 48)        192
_________________________________________________________________
max_pooling2d_1 (MaxPooling2 (None, 15, 15, 48)        0
_________________________________________________________________
spatial_dropout2d_1 (Spatial (None, 15, 15, 48)        0
_________________________________________________________________
conv2d_3 (Conv2D)            (None, 15, 15, 96)        41568
_________________________________________________________________
activation_3 (Activation)    (None, 15, 15, 96)        0
_________________________________________________________________
batch_normalization_3 (Batch (None, 15, 15, 96)        384
_________________________________________________________________
conv2d_4 (Conv2D)            (None, 13, 13, 96)        83040
_________________________________________________________________
activation_4 (Activation)    (None, 13, 13, 96)        0
_________________________________________________________________
batch_normalization_4 (Batch (None, 13, 13, 96)        384
_________________________________________________________________
max_pooling2d_2 (MaxPooling2 (None, 6, 6, 96)          0
_________________________________________________________________
spatial_dropout2d_2 (Spatial (None, 6, 6, 96)          0
_________________________________________________________________
conv2d_5 (Conv2D)            (None, 6, 6, 192)         166080
_________________________________________________________________
activation_5 (Activation)    (None, 6, 6, 192)         0
_________________________________________________________________
batch_normalization_5 (Batch (None, 6, 6, 192)         768
_________________________________________________________________
conv2d_6 (Conv2D)            (None, 4, 4, 192)         331968
_________________________________________________________________
activation_6 (Activation)    (None, 4, 4, 192)         0
_________________________________________________________________
batch_normalization_6 (Batch (None, 4, 4, 192)         768
_________________________________________________________________
max_pooling2d_3 (MaxPooling2 (None, 2, 2, 192)         0
_________________________________________________________________
spatial_dropout2d_3 (Spatial (None, 2, 2, 192)         0
_________________________________________________________________
flatten_1 (Flatten)          (None, 768)               0
_________________________________________________________________
dense_1 (Dense)              (None, 512)               393728
_________________________________________________________________
activation_7 (Activation)    (None, 512)               0
_________________________________________________________________
batch_normalization_7 (Batch (None, 512)               2048
_________________________________________________________________
dropout_1 (Dropout)          (None, 512)               0
_________________________________________________________________
dense_2 (Dense)              (None, 10)                5130
_________________________________________________________________
activation_8 (Activation)    (None, 10)                0
=================================================================
Total params: 1,048,378
Trainable params: 1,046,010
Non-trainable params: 2,368
_________________________________________________________________
Epoch 1/512
INFO:plaidml:Analyzing Ops: 739 of 933 operations complete
INFO:plaidml:Analyzing Ops: 739 of 933 operations complete
 - 211s - loss: 1.5868 - acc: 0.4610 - val_loss: 1.0086 - val_acc: 0.6412
…
