…
2020-01-23 22:45:50.981974: I tensorflow/stream_executor/cuda/cudart_stub.cc:29] Ignore above cudart dlerror if you do not have a GPU set up on your machine.
Using plaidml.keras.backend backend.
Scaling input data...
Max value: 255.0
Number of classes in this dataset: 10
One hot encoding targets...
Original input shape: (32, 32, 3)
INFO:plaidml:Opening device "opencl_amd_ellesmere.0"
_________________________________________________________________
Layer (type)                 Output Shape              Param #
=================================================================
conv2d_1 (Conv2D)            (None, 32, 32, 64)        4864
_________________________________________________________________
activation_1 (Activation)    (None, 32, 32, 64)        0
_________________________________________________________________
batch_normalization_1 (Batch (None, 32, 32, 64)        256
_________________________________________________________________
conv2d_2 (Conv2D)            (None, 28, 28, 64)        102464
_________________________________________________________________
activation_2 (Activation)    (None, 28, 28, 64)        0
_________________________________________________________________
batch_normalization_2 (Batch (None, 28, 28, 64)        256
_________________________________________________________________
max_pooling2d_1 (MaxPooling2 (None, 14, 14, 64)        0
_________________________________________________________________
spatial_dropout2d_1 (Spatial (None, 14, 14, 64)        0
_________________________________________________________________
conv2d_3 (Conv2D)            (None, 14, 14, 128)       73856
_________________________________________________________________
activation_3 (Activation)    (None, 14, 14, 128)       0
_________________________________________________________________
batch_normalization_3 (Batch (None, 14, 14, 128)       512
_________________________________________________________________
conv2d_4 (Conv2D)            (None, 12, 12, 128)       147584
_________________________________________________________________
activation_4 (Activation)    (None, 12, 12, 128)       0
_________________________________________________________________
batch_normalization_4 (Batch (None, 12, 12, 128)       512
_________________________________________________________________
max_pooling2d_2 (MaxPooling2 (None, 6, 6, 128)         0
_________________________________________________________________
spatial_dropout2d_2 (Spatial (None, 6, 6, 128)         0
_________________________________________________________________
conv2d_5 (Conv2D)            (None, 6, 6, 256)         295168
_________________________________________________________________
activation_5 (Activation)    (None, 6, 6, 256)         0
_________________________________________________________________
batch_normalization_5 (Batch (None, 6, 6, 256)         1024
_________________________________________________________________
conv2d_6 (Conv2D)            (None, 4, 4, 256)         590080
_________________________________________________________________
activation_6 (Activation)    (None, 4, 4, 256)         0
_________________________________________________________________
batch_normalization_6 (Batch (None, 4, 4, 256)         1024
_________________________________________________________________
max_pooling2d_3 (MaxPooling2 (None, 2, 2, 256)         0
_________________________________________________________________
spatial_dropout2d_3 (Spatial (None, 2, 2, 256)         0
_________________________________________________________________
flatten_1 (Flatten)          (None, 1024)              0
_________________________________________________________________
dense_1 (Dense)              (None, 512)               524800
_________________________________________________________________
activation_7 (Activation)    (None, 512)               0
_________________________________________________________________
batch_normalization_7 (Batch (None, 512)               2048
_________________________________________________________________
dropout_1 (Dropout)          (None, 512)               0
_________________________________________________________________
dense_2 (Dense)              (None, 512)               262656
_________________________________________________________________
activation_8 (Activation)    (None, 512)               0
_________________________________________________________________
batch_normalization_8 (Batch (None, 512)               2048
_________________________________________________________________
dropout_2 (Dropout)          (None, 512)               0
_________________________________________________________________
dense_3 (Dense)              (None, 10)                5130
_________________________________________________________________
activation_9 (Activation)    (None, 10)                0
=================================================================
Total params: 2,014,282
Trainable params: 2,010,442
Non-trainable params: 3,840
_________________________________________________________________
Epoch 1/512
INFO:plaidml:Analyzing Ops: 534 of 1052 operations complete
 - 340s - loss: 1.6050 - acc: 0.4527 - val_loss: 1.1015 - val_acc: 0.6192
Epoch 2/512
 - 289s - loss: 0.9223 - acc: 0.6770 - val_loss: 0.7076 - val_acc: 0.7614
…
